vanilla_resnet.pt (torch_old, 707184 bytes, 152 tensors)

conv_1.weight f4 [128, 3, 3, 3]
000000 67 f4 e2 be f6 d3 23 be df 3f 9a be e2 ca ce be
       -0.4432709 -0.15998825 -0.30126855 -0.40389162
000010 88 c9 2d be 73 20 6b bd 0c 7d a0 3e 43 3c e7 3e
       -0.1697141 -0.057403993 0.31345403 0.45163164
000020 26 62 28 be 00 23 a6 be c2 45 71 be d2 95 1c be
       -0.1644369 -0.32448578 -0.23561767 -0.15291527
000030 ea ac 49 be 7f 4b 79 bd 6a 66 b0 bd 77 3d 6a 3e
       -0.19694868 -0.060863014 -0.08613284 0.2287501
000040 a3 17 82 3e 75 c7 28 be 8f 9f 33 be f9 e8 0e bd
       0.25408658 -0.16482337 -0.17541336 -0.03489015
000050 a6 fd 28 3e c5 33 c2 3e 46 32 55 3e 88 e2 bd 3e
       0.16503009 0.37930122 0.20819959 0.37086892
000060 c7 67 95 3e fa fa 8b 3e 74 0f 19 3e 6b 7b fb bd
       0.29180738 0.27339917 0.14947301 -0.122793995
000070 cb eb 90 be 7e b2 85 3c 5a b1 1a be b6 fd 1d be
       -0.28304896 0.016320463 -0.15106717 -0.15428814
000080 6f 20 07 3f 79 d2 61 be 54 44 d0 be c2 56 38 3e
       0.52783865 -0.22052945 -0.4067713 0.18001845
000090 65 ba 3f be dc ac 76 be 2f e2 69 be 87 40 9b 3c
       -0.18723448 -0.24089378 -0.22840188 0.018951667
0000a0 8e 7d 06 bf 63 81 0c 3e 82 da 41 be 3e db 26 bf
       -0.5253533 0.13721232 -0.1893101 -0.6517829
0000b0 ab 03 4c 3d 97 20 7c 3d c3 20 d2 bc 77 bb cf bd
       0.049808186 0.061554518 -0.025650388 -0.10143178
0000c0 eb 88 08 3e 62 2f d9 bd 9d a0 ff 3e f5 5c 96 3e
       0.1333348 -0.10604741 0.49927226 0.29367796
0000d0 ea 3e 99 3c 8c bd d1 3e df 6b 04 3f 61 10 3c 3d
       0.018706758 0.40964925 0.517271 0.045914058
0000e0 30 e9 50 3d 48 f4 55 3e c9 35 b6 be ed 8d c0 be
       0.051003635 0.20893967 -0.3558791 -0.3760828
0000f0 30 d0 af 3e de e1 30 3d fe 1d 7b be 2f 1a aa 3d
       0.34338522 0.043184154 -0.2452316 0.083057754
000100 3f 8a 38 3d 07 62 dd bd 4c 70 b5 bd 0e 66 21 be
       0.045053717 -0.10809713 -0.088593096 -0.15761587
000110 94 91 99 bd 39 52 33 3e e9 0e 38 be 89 99 17 be
       -0.0749847 0.17511834 -0.17974438 -0.14804663
000120 ea 56 8c bc a3 d9 70 3c 2f 0d b6 3d d2 39 d1 bd
       -0.017131288 0.014700326 0.08889233 -0.102161065
000130 2d ed 4f be f1 8e 95 be b3 5e 20 be c2 51 59 be
       -0.20305319 -0.29210618 -0.15661125 -0.21222594
000140 17 b6 7d be ce ff a1 3d 98 30 90 3c fa 58 93 be
       -0.24776493 0.07910119 0.017601296 -0.2877882
000150 1a 14 25 3e 4e c8 50 be c0 39 ba bd a6 6b 0e 3e
       0.1612095 -0.2038891 -0.09093046 0.13908252
000160 d6 93 63 bc 6e bf 43 be ef ae 20 bd 24 db c2 bc
       -0.013890227 -0.19115993 -0.03922933 -0.023786135
000170 cb 4a 23 3d ed 59 c6 bd c6 7f b1 be 46 eb 5c be
       0.03986625 -0.09685121 -0.34667796 -0.21574125
000180 cc 26 94 3c 63 67 86 bd a6 f9 6a be be a7 55 be
       0.018084906 -0.06562688 -0.22946796 -0.2086477
000190 2f 4e 82 3d a3 85 1c 3d 91 11 68 bd 02 13 6b be
       0.063625686 0.038213383 -0.056657378 -0.2295647
0001a0 8e 75 75 be 75 39 3b 3e ee 2c 71 be 68 00 53 be
       -0.23970625 0.18283637 -0.23552296 -0.20605624
0001b0 a4 6f fd bd 5d f2 a2 bd 39 b3 40 be 4d ac 89 bb
       -0.123748094 -0.079563834 -0.18818368 -0.004201448
0001c0 64 4d 5d be a2 5e b2 3d c4 c5 18 3d f6 ef 56 be
       -0.21611553 0.08709456 0.03729798 -0.20989975
0001d0 9f 64 f5 bd 89 b7 fd bd 98 31 c1 bd 04 65 a6 bd
       -0.119820826 -0.12388522 -0.094332874 -0.08124736
0001e0 4a 71 74 bd cb 40 cf bd b1 a8 43 be f5 b6 77 bc
       -0.059678353 -0.1011978 -0.1910732 -0.015119304
0001f0 7f 26 79 be 4a 76 48 be 3a 87 56 be cd ff 56 be
       -0.24331091 -0.19576374 -0.20950022 -0.20996018
000200 5c fb 35 be 52 74 9c be bd c4 07 be 23 09 36 bd
       -0.17771667 -0.30557495 -0.13258643 -0.044442307
000210 a4 7a 65 be 4f 07 46 bd 2d 4c 82 3d 66 f7 9b be
       -0.22410065 -0.048346814 0.063621856 -0.30462188
000220 4a c5 77 3e 32 ec 2a bc 6b a5 73 3d 5a da ea 3e
       0.24196354 -0.01043229 0.059483927 0.45869714
000230 1b e1 ff 3d 55 cc 1a be 27 95 90 3e 34 11 0b 3c
       0.12494107 -0.15117009 0.28238794 0.008487988
000240 3e 38 42 bd 4c 9e cd 3e ba bd cb 3e 96 d6 06 3d
       -0.047416918 0.40159833 0.39793187 0.03291949
000250 0e 27 ba bd 20 19 41 be 67 b6 9a be 04 c8 5b be
       -0.0908948 -0.1885724 -0.30217287 -0.21463019
000260 95 b9 05 be 5d ad ee 3e dd 09 1f 3f 3c 88 cc 3c
       -0.13059075 0.4661664 0.62124425 0.024967305
000270 09 a3 57 3d 8a 48 10 bf 44 d0 08 bf 12 a1 87 be
       0.052645717 -0.56360686 -0.5344279 -0.26490074
000280 c3 d1 e4 be 94 e1 78 be de 68 2b be 50 a7 04 3e
       -0.44691285 -0.24304801 -0.16739222 0.1295445
000290 61 be 8e bb 53 ea 75 be 11 83 2d 3e 8a 3c 81 3e
       -0.004356191 -0.24015169 0.16944529 0.252415
0002a0 bb 75 c3 be 09 f8 41 3e fd 36 d3 3d 2a 62 00 be
       -0.3817576 0.18942274 0.103132226 -0.12537447
0002b0 e2 f7 f9 3e db 5e 07 bd 5b 40 0c bf 4a cb cf 3e
       0.48821932 -0.033049446 -0.547857 0.40584785
0002c0 d5 de 24 3e e8 b0 1b bf ab f6 3d 3e 08 36 f9 bd
       0.16100629 -0.6081681 0.18551128 -0.12168509
0002d0 1d 75 2d 3e 27 77 a2 3e 03 8b 3a bc 8d 39 cb bb
       0.16939206 0.3173153 -0.011385682 -0.006201929
0002e0 7a 0f d9 3e b9 fd c0 3d 1f f2 c0 be de 03 00 3e
       0.4239462 0.09423394 -0.37684724 0.12501475
0002f0 49 be b5 be b2 95 ac bc 8b f8 3f 3c f4 06 81 bc
       -0.3549674 -0.021067474 0.011716972 -0.015750386
000300 ea 5b 85 be 89 d4 03 be 69 1f 8c be 9c ac 78 be
       -0.26046687 -0.12874044 -0.27367714 -0.24284595
000310 19 9a 82 be 6a c3 82 bd 9b 12 3e be 45 6e b3 bd
       -0.25508192 -0.063849285 -0.18561785 -0.087612666
000320 d6 71 de bd 46 70 bd 3d 8e b6 30 be 29 e1 5f be
       -0.10861556 0.0924993 -0.17257139 -0.21863236
000330 38 d1 2d be b3 b0 04 3e 12 03 09 be ac 7d de 3d
       -0.16974342 0.1295803 -0.13380077 0.10863814
000340 df 22 9c 3b fd a6 b8 bd 41 56 a2 bc 40 9a 6a bd
       0.004764899 -0.090162255 -0.01981652 -0.05727601
000350 8f 0c 15 bd e9 0f d1 bd 85 02 3a 3e 1b 33 d0 bc
       -0.03638893 -0.10208113 0.18165024 -0.025414994
000360 9a 36 64 be 71 7f 0d 3c 47 66 a4 3e 08 73 e2 be
       -0.22286454 0.008636341 0.3210928 -0.44228387
000370 e8 5e 61 3e fe ca 8e 3e 15 e5 bb be b3 88 d2 3b
       0.2200886 0.27889246 -0.36698213 0.006424987
000380 a4 bf b8 be 26 22 a6 3d ad f8 fc 3d ad c0 4c 3e
       -0.3608371 0.08111982 0.12352119 0.19995375
000390 d1 ad 95 be 08 3a b3 3e ec 8b 62 3e ef d4 0e be
       -0.29234174 0.35005212 0.22123688 -0.13948415
0003a0 76 43 4b 3e 34 83 b5 3e 6e 49 04 3e 9f ea 5b 3e
       0.19849953 0.35451663 0.12918636 0.2147622
0003b0 e7 9a 21 3f ce 47 c2 be 1c ea 32 3e 3e 0f 84 3e
       0.6312699 -0.37945408 0.17472118 0.2579288
0003c0 df b3 47 3d 40 fa 78 3e 3c d6 dd 3c a8 e3 ef 3d
       0.048755523 0.24314213 0.027079694 0.11713344
0003d0 5b 48 dd 3b aa 18 71 be 7b 62 5a 3d 73 45 82 be
       0.00675301 -0.23544565 0.053316575 -0.2544361
0003e0 78 bb b0 bd ca b3 ef bd f8 93 49 be ea 77 76 bd
       -0.08629507 -0.11704214 -0.19685352 -0.060172953
0003f0 3b 2c 67 3d f3 61 21 be a3 c6 5b be 28 18 30 be
       0.056438666 -0.15760021 -0.21462493 -0.17196715

bn_1.weight f4 [128]
000000 3c 29 9e 3e d1 be 96 3e fd 81 14 3e 98 ee 50 3d
       0.30890834 0.29442456 0.14502712 0.05100879
000010 df 24 0b 3d 4e 1a 20 3f c1 82 be 3e 8b 36 14 bc
       0.03397071 0.6254014 0.37209132 -0.009046207
000020 14 1e b4 3e bd 68 1b 3d 36 ed 2f 3e 36 8a 40 3a
       0.35179198 0.037941683 0.17180333 0.0007344814
000030 05 29 95 3e f2 3e 92 3e 50 99 98 bb 64 c2 ae 3e
       0.29132858 0.28563648 -0.004656948 0.34132683
000040 01 8e 6f 3e 86 87 5a 3e ce 3c 44 3e c2 77 8d 3d
       0.23394014 0.2134076 0.1916382 0.069076076
000050 d6 c9 c6 3e 85 b1 19 bf 0e c2 18 3f e4 50 64 3f
       0.38825864 -0.600365 0.59671104 0.8918593
000060 8e 1f 33 3f cd ae 75 3d 9d 3e c9 3e 7e 04 a3 bc
       0.69970024 0.059981156 0.39305583 -0.019899603
000070 1b 7f fb 3e 01 86 2f 3c 2d e5 54 bc 70 7c 27 3e
       0.4912041 0.010713101 -0.012994093 0.16356063
000080 d1 8d 31 bd 35 a7 0b 3f 4c f4 1a 3e bd 80 65 3e
       -0.043348137 0.5455201 0.15132254 0.22412391
000090 84 2b 07 3f c0 21 89 3e 56 42 40 3d 21 f1 e9 3d
       0.52800775 0.26783562 0.046938263 0.11422945
0000a0 54 99 98 bc ca 17 e2 3e 48 6a 84 bb e1 2a 9c 3e
       -0.0186278 0.44158775 -0.00404099 0.30501464
0000b0 3f 79 b1 3e 11 34 cf 3d 4c 84 12 3e fa 4e cc 3c
       0.34662816 0.10117353 0.1430828 0.024940003
0000c0 74 bd e3 bc ed 18 07 3f 95 67 07 3d 1f 5d df 3e
       -0.0278003 0.5277241 0.033057768 0.43625733
0000d0 f9 c2 80 3e a6 47 32 3f 3d ce 7b bc 9d 80 5e 3f
       0.25148752 0.69640577 -0.015368995 0.86915
0000e0 2f 32 23 3e 2c c7 6c 3e 00 ac 70 3e a4 8e fd 3d
       0.15937112 0.23122853 0.23503113 0.12380722
0000f0 8e 0a 8a 3d 57 76 fe 3e 82 1f 2f 3f 19 c9 fa 3e
       0.067402944 0.4969966 0.6840745 0.4898155
000100 77 95 f4 3e a0 90 c9 3e b8 ba 65 3d 43 33 de 3e
       0.47770283 0.39368153 0.056086272 0.43398485
000110 b8 5c bf 3d 1b 11 24 3f aa 00 99 3e c7 a5 36 3f
       0.093438566 0.640886 0.2988332 0.71346706
000120 19 31 9a 3e c9 1b 03 ba 88 aa cf 3d 01 fa d8 3e
       0.30115584 -0.0005001394 0.10139948 0.42378238
000130 db 68 9a 3c 2c 99 dd 3e ee 04 a5 3e 65 30 38 3d
       0.018848827 0.43280923 0.32230324 0.044968028
000140 da ba 05 bd cd 36 5d 3e 42 7c 1a bd c0 fc 9b 3a
       -0.0326489 0.21602936 -0.037716158 0.0011900887
000150 28 e8 ad 3c 0d 3b e4 3e 27 ca 57 3e e2 df 82 3d
       0.021228865 0.44576302 0.21073209 0.063903585
000160 b3 c5 b3 3c 3a d2 29 3f 89 bb f2 3d 93 45 b9 3e
       0.021944856 0.66336405 0.11852176 0.36185893
000170 82 71 f0 3e eb 5f b4 3e 41 d1 04 3f 77 83 f6 3e
       0.469616 0.3522943 0.51881796 0.48147175
000180 5b 39 8b 3e 28 3d 16 3f 58 dd 3b 3c 4d 1d 02 3f
       0.27192196 0.5868707 0.011466347 0.5082596
000190 0f 31 fd 3e 66 28 51 3b 79 ae 18 3f b0 29 79 bc
       0.4945149 0.0031914948 0.59641224 -0.015207693
0001a0 49 3f e0 3e c4 61 0f 3d e9 6d 71 3d ce ad 07 3f
       0.43798283 0.035005346 0.05894271 0.5299958
0001b0 4d 6b b1 3e 42 04 bd 3e 7e 5a df 3e 58 55 33 3d
       0.34652176 0.3691731 0.43623728 0.043782562
0001c0 8e b7 d7 3e 22 6e b7 3c 95 af 7b 3d ae 29 b0 3e
       0.4213223 0.022391383 0.061446745 0.344068
0001d0 e2 6c 36 3e d0 47 13 3f 3f 25 9c bc 74 c4 da bc
       0.17814973 0.5753145 -0.01906073 -0.026705004
0001e0 4b 0e 61 3f d4 1d e1 bc fb 7a fe 3e 04 67 85 3e
       0.87912434 -0.027480043 0.49703202 0.26055157
0001f0 25 0e 35 3d 17 25 3c 3f 48 30 bf 3d f8 00 fc 3d
       0.044202942 0.73494095 0.09335381 0.12304872

bn_1.bias f4 [128]
000000 df 5d b8 be 73 da 82 be 22 93 90 be 97 55 09 be
       -0.36009118 -0.2555729 -0.28237253 -0.13411556
000010 52 10 b3 bd 32 e8 0f bf 03 79 af be 28 86 2b bd
       -0.08743347 -0.56213677 -0.34272012 -0.04187599
000020 5f 0a df be 40 80 25 be 14 5c f7 bd e6 f3 20 be
       -0.435626 -0.16162205 -0.120781094 -0.1571804
000030 11 ff 86 be fe e8 74 be cd cc cc bd ed 0b 83 be
       -0.26366475 -0.23917004 -0.1 -0.25595036
000040 4f 9a 8d be 20 25 a0 be 98 0b 64 be fe 40 59 3d
       -0.2765679 -0.31278324 -0.22270048 0.053040497
000050 58 e1 89 be 32 e2 1b bf c5 7c c8 bc 2f 11 2d 3f
       -0.26929736 -0.6089202 -0.024473557 0.67604345
000060 de 65 90 bd e5 1b 6e be 6f 03 0a 3d 6e 92 d7 bd
       -0.070506796 -0.23252828 0.03369468 -0.10525976
000070 36 3e a9 bd 70 ea 16 bd 63 d5 19 be 8c 9f b5 bc
       -0.08263819 -0.03684467 -0.15022807 -0.022170804
000080 ab 80 1d bc 51 86 ed bb 22 35 eb be e3 32 a5 be
       -0.009613196 -0.007248678 -0.45938975 -0.32265386
000090 59 bc 55 be 5a 39 8c be d1 a2 f4 bd db 85 a6 be
       -0.2087263 -0.27387506 -0.11945117 -0.32524
0000a0 cd cc cc bd 27 5d a5 3e ea 31 94 bd 6a 1a be be
       -0.1 0.32297632 -0.07236083 -0.37129527
0000b0 42 7e ae be 7e d7 83 be 42 22 bd be 1f cf bf bd
       -0.34080702 -0.25750345 -0.369402 -0.09365677
0000c0 cd cc cc bd e3 e2 d7 be e7 3d 44 3d 4c db 5f bd
       -0.1 -0.42165288 0.047910597 -0.054652497
0000d0 26 33 5c be af 5a c0 3e b3 d9 b7 bd 8c 08 09 3f
       -0.21503887 0.37569186 -0.0897707 0.53528666
0000e0 74 c6 85 3e 47 47 ea bc fa e3 98 be d8 cd 9b be
       0.2612797 -0.02859844 -0.29861432 -0.30430484
0000f0 56 39 63 be 7c 51 8c 3c f2 9e ee 3e ad b9 f8 be
       -0.2218984 0.017128699 0.4660564 -0.4857916
000100 e9 0c 7c be 50 9b 2a be e2 ff 25 be 6c 51 c6 be
       -0.246143 -0.1666081 -0.16210893 -0.38733995
000110 d5 fb 8d be dc f2 bc 3e 94 38 ae be 78 b9 fa be
       -0.27731195 0.36904037 -0.3402754 -0.48969626
000120 f1 42 ce be f0 25 47 be 37 ee cb bc e6 79 05 bf
       -0.40285447 -0.19448066 -0.024893863 -0.5213913
000130 46 0e 4f bd fe 2b 6f be cb 19 31 be 6f 97 34 be
       -0.05055072 -0.23356625 -0.17294995 -0.17635892
000140 cd cc cc bd 9d f9 3e bc 55 aa ce bd cd cc cc bd
       -0.1 -0.011656192 -0.10091082 -0.1
000150 4f e1 1a be 5c e4 21 bf bd 1a ce 3d 9b 48 2c be
       -0.15125011 -0.63239074 0.10063694 -0.16824572
000160 bd 08 c6 3d 1b 97 8d 3e 7c ba af be 0c 5e 07 bf
       0.096696354 0.27654347 -0.34321964 -0.5287788
000170 17 35 7e bd 72 f5 92 be f4 9e a2 3e 34 f0 07 bf
       -0.06206235 -0.28702885 0.31761897 -0.53100896
000180 5c 06 75 be d7 70 1c bf cd cc cc bd fb e1 a2 bc
       -0.23928207 -0.6110968 -0.1 -0.019883147
000190 bf d4 e8 bd 18 5e 6c bc b1 e1 e1 3e 66 be 33 be
       -0.11368703 -0.014426731 0.441175 -0.175531
0001a0 30 7e c9 bd 34 fc 48 be f2 38 5f be 65 58 0a 3e
       -0.098385215 -0.19627458 -0.21799067 0.13510282
0001b0 f5 6b 12 be 26 7b f7 be 35 75 f4 be eb 92 06 be
       -0.14298995 -0.48336142 -0.47745672 -0.13141982
0001c0 09 4f 26 3e 5e 4b a1 bd f7 e3 6a be b8 e3 8d be
       0.16241087 -0.07875703 -0.22938524 -0.27712798
0001d0 f8 0a 7a be 5f 8e 53 be 6b d2 49 bd cd cc cc bd
       -0.24418247 -0.20659779 -0.049272936 -0.1
0001e0 98 31 ea 3e 0d fb d0 bd ce fd a8 bd 83 15 94 3d
       0.45740962 -0.10204134 -0.082515344 0.072306655
0001f0 55 8a 4a be 81 0f 78 3e ed 5d 74 be e5 b7 bb be
       -0.19779332 0.24224664 -0.23863955 -0.36663738

bn_1.running_mean f4 [128]
000000 67 4f 10 be 9f e8 99 bd f5 29 f0 3d c6 39 d8 3d
       -0.1409279 -0.07515072 0.11726753 0.105578944
000010 ff f7 15 3e a7 11 c1 3d 55 53 df bc a6 09 c4 3c
       0.14645384 0.09427195 -0.027261415 0.023930382
000020 f5 a3 14 be a7 1f 87 3d a9 97 ab 3b ba 41 dd bd
       -0.1451567 0.06597834 0.005236585 -0.10803552
000030 b6 b8 23 be e3 12 24 3c 76 19 a6 bd 05 f1 3a 3d
       -0.1598843 0.010014269 -0.08110325 0.04564001
000040 9b c4 4f be 6b 42 7e 3c 22 ca 47 3d 3f 55 30 bd
       -0.20289843 0.015518765 0.048776753 -0.043050047
000050 ef 03 ba 3d c9 2f c4 bb 18 3e 27 bc 30 e2 cf bc
       0.090827815 -0.0059871417 -0.010207675 -0.02537641
000060 d6 58 61 3b e6 ad e6 bd 28 53 63 3e 58 51 8a bd
       0.0034385226 -0.11263637 0.2219969 -0.06753796
000070 fa b2 55 bd ef 76 f3 bd 4d 33 93 bd 87 3f 0b 3d
       -0.05217264 -0.11887919 -0.07187519 0.03399613
000080 63 ea b8 bd e5 ec 34 3d 63 c9 c0 bd 43 e5 53 bd
       -0.09029081 0.044171233 -0.094134115 -0.051732313
000090 bb 80 e2 3b 1c 13 78 3d 08 d8 85 3d 1c 08 f7 3d
       0.0069123185 0.0605651 0.06535345 0.120620936
0000a0 66 74 e1 3d 61 e6 56 3b 0c e2 a9 3d 1a d4 5a 3e
       0.11008529 0.0032791125 0.08295068 0.21369973
0000b0 08 f8 4a 3e 1b cb e1 3d be fd bc 3d b2 8d 35 3c
       0.19821179 0.110250674 0.09228085 0.011081146
0000c0 f5 c9 b4 3d 26 0c 29 bd b9 0b 34 be b0 59 19 be
       0.08827583 -0.04127135 -0.17582597 -0.1497562
0000d0 b4 2f 96 bd 11 c7 5e 3b a9 04 9c 3c cd 46 28 3c
       -0.073333174 0.0033993165 0.01904519 0.0102707865
0000e0 4b 36 a6 3c d7 d0 5a 3e 74 bb fe 3d 41 b7 cd 3d
       0.02028956 0.21368729 0.124380976 0.100447185
0000f0 d9 21 10 bd 75 3e 3b bc 88 bf 1c 3c ce d5 3e 3e
       -0.03518853 -0.011428465 0.009567149 0.18636248
000100 1f b1 fa bd aa 8b 2a be 3d 25 20 be 5e 3a 15 3d
       -0.122408144 -0.1665484 -0.15639205 0.036432616
000110 e5 2c 8a bd f5 03 24 3d c1 4e a8 3c 3a c6 fd 3b
       -0.06746844 0.040042836 0.020545365 0.0077445777
000120 cd fa 50 3e 85 68 d7 bd 54 80 16 3e 48 ca a2 3d
       0.20408173 -0.105179824 0.14697391 0.07948738
000130 2b be bc 3d fd 3d 6f 3c 2f 00 c8 3d f0 6e 0c 3e
       0.09215959 0.0146021815 0.0976566 0.13714194
000140 68 b3 de bd 23 1e 16 3e 15 dd ac bd aa 2a 39 3c
       -0.10874063 0.14659934 -0.084406056 0.011301676
000150 eb 30 ce 3d d0 e9 ec bd 23 0b cd 3b db 98 e5 3d
       0.10067924 -0.11568034 0.006257431 0.112107955
000160 24 bc 94 3d d1 71 ed 3d 25 67 ee bd ff 07 79 bb
       0.072624475 0.115939744 -0.11640767 -0.003799915
000170 45 29 8f 3c 74 a8 65 3d 78 e2 02 bd 46 5b 9d bd
       0.017475734 0.056068853 -0.03195426 -0.07683425
000180 3f 45 8a 3e 72 52 00 be 5e ba a4 bc c9 dc 48 be
       0.27005956 -0.1253145 -0.020108398 -0.19615473
000190 4f 08 cb 3d 42 1c 9e 3c d9 6a 15 bd 9e 2b 01 be
       0.09913694 0.019300584 -0.03647885 -0.12614295
0001a0 69 49 eb b9 1c 50 06 be ef 49 61 3d c8 98 5d be
       -0.00044877388 -0.13116497 0.05500215 -0.21640313
0001b0 37 a5 29 be 1e 02 83 bd be 07 58 3b e5 cd d9 3d
       -0.1656693 -0.06396888 0.00329636 0.106349744
0001c0 4d 15 c3 3c f4 5f 62 bd a2 a5 08 bd 39 66 8f bc
       0.023813868 -0.05526729 -0.033361085 -0.017504798
0001d0 9f 1f 23 bd 0b 7e db 3c 97 0a 87 bd 87 0d 1a bb
       -0.039825078 0.0267935 -0.06593817 -0.0023506598
0001e0 77 10 02 bc f3 1b fa 3c e2 0b ba bc ec 6a f0 3d
       -0.007938496 0.030530905 -0.022710744 0.11739144
0001f0 65 7d 18 3e fd 5a 93 bc 7d f5 ad 3d 5f 4a c7 bd
       0.14891584 -0.017987723 0.08494089 -0.09730982

bn_1.running_var f4 [128]
000000 51 dc dc 3e ab f0 04 3f 8d 67 1a 3f b3 68 85 3f
       0.43136838 0.5192973 0.60314256 1.0422577
000010 70 8f f6 3f 8a 2f b8 3e a9 b9 99 3e 99 d7 5b 3f
       1.9262524 0.3597377 0.3002446 0.8587585
000020 07 82 88 3f 2e 78 a1 3f 4f 07 bc 3e 2d 03 9c 3f
       1.0664681 1.2614801 0.36724326 1.2188469
000030 37 b2 99 3f bc 76 88 3f 1a 26 55 3f 4e b6 c9 3e
       1.2007512 1.0661235 0.83261263 0.393969
000040 ea 3c 5c 3f 7b 5b 85 3e 72 66 3c 3f 38 ca 0b 3f
       0.8603045 0.26046357 0.7359382 0.54605436
000050 92 1c dd 3e 04 7b 54 3f 0a ad 04 3e 2d ef 4c 3e
       0.4318586 0.83000207 0.12956634 0.20013113
000060 ae d4 99 3e 00 6f ff 3f 94 68 54 3f 88 29 ba 3e
       0.30045074 1.995575 0.82972074 0.3635981
000070 82 1b ce 3e 21 3b ae 3f fa 76 6d 3f 19 23 ed 3e
       0.40255362 1.3611795 0.9275967 0.4631584
000080 86 83 70 3f 92 e5 0d 3f f8 98 a7 3f 63 7d 61 3f
       0.9395069 0.5542842 1.3093557 0.8808195
000090 e2 5d f7 3e a0 a5 30 3f 42 12 72 3f 6e 4b 83 3f
       0.48313814 0.69002724 0.9455911 1.0257394
0000a0 b6 e3 ac 3f 40 a8 3f 3e 4e ef 9a 3f be 35 7c 3f
       1.3506992 0.18716526 1.210428 0.98519504
0000b0 7e e3 73 3f 8b 08 39 3f fa c6 96 3f da 35 9a 3f
       0.95269 0.7227866 1.1779473 1.2047684
0000c0 1f 26 89 3f e9 82 eb 3e 5e bc 91 3f 41 94 b7 3e
       1.0714759 0.45998314 1.138561 0.35855296
0000d0 64 99 0f 40 ee 0c e6 3e 98 5a 0f 3f 0e 79 29 3e
       2.2437372 0.4493174 0.5599761 0.16550085
0000e0 05 ae 96 3f ec 7b 34 3f 46 2f 76 3f be 88 e5 3e
       1.1771857 0.7050159 0.96165884 0.44830889
0000f0 96 a7 69 3f 3c 5c 1d 3f 1b ff 54 3e 39 49 af 3e
       0.9127134 0.61468863 0.2080044 0.34235552
000100 a0 d4 6b 3f 6d de d6 3f 09 0c 91 3f 5a 73 01 3f
       0.92121315 1.6786629 1.1331798 0.5056664
000110 dc ab 82 3f d2 c8 dd 3e 36 20 5e 3e 57 42 d4 3f
       1.0208697 0.43317276 0.21691975 1.6582745
000120 65 c3 ab 3f e1 e8 9b 3f 8e 67 b3 3e a8 12 44 3e
       1.3419005 1.2180444 0.35039943 0.19147742
000130 ce ea 7a 3f ea 4f 09 3f 22 b6 31 3f a9 2c 52 3f
       0.98014534 0.53637564 0.6941854 0.82099396
000140 f9 0d a1 3f 87 5f b2 3f 16 84 79 3f c5 b3 0c 3e
       1.2582389 1.3935403 0.9746717 0.13740452
000150 35 cc 5e 3f 84 19 46 3f 65 c1 8d 3e 52 69 b5 3f
       0.87030345 0.77382684 0.2768661 1.4172766
000160 ac 34 74 3e a0 16 64 3e 70 c8 d9 3f e9 88 64 3f
       0.23848218 0.22274256 1.7014294 0.8927141
000170 51 19 b5 3e d3 62 b2 3f 85 a2 b0 3e 8b 5b 50 3e
       0.35370877 1.3936409 0.34498993 0.20347421
000180 7e 25 85 40 05 2b 9a 3e 11 71 82 3e c3 2a dd 3e
       4.1608267 0.30110946 0.25476888 0.43196687
000190 69 22 5f 3f 89 67 b4 3e ee 80 fa 3e 00 03 b2 3f
       0.8716188 0.3523524 0.4892649 1.3907166
0001a0 7e 93 16 3e a8 86 3a 3f f4 92 2e 3f f8 9e 17 3f
       0.14704701 0.7286172 0.6819298 0.5922694
0001b0 92 52 1b 40 4d b6 f1 3f 1a 9c 80 3e 0a 66 82 3f
       2.4269147 1.8883759 0.25119096 1.018739
0001c0 f7 d5 1b 3f d6 8b ca 3f 0f cf 61 3f 9b e4 88 3f
       0.6087336 1.5823925 0.8820657 1.0694765
0001d0 ca 90 9e 3f 24 93 12 3f 5e 38 2a 3f fe 9c 5a 3e
       1.2387936 0.5725577 0.6649226 0.2134895
0001e0 19 ec 0a 3e 24 50 58 3e 1b 71 20 3f 42 a4 fb 3e
       0.13566627 0.21124321 0.62672585 0.49148756
0001f0 29 c7 b2 3f 65 d4 5f 3e 9b fe 87 3f 70 c9 c5 3f
       1.3967029 0.21858366 1.0624574 1.5452099

conv_global.weight f4 [128, 128, 3, 3]
000000 59 ae cb bd 19 9f 15 bc 8c 29 8e bd 68 2e 20 be
       -0.099453636 -0.00913217 -0.06941518 -0.15642703
000010 09 5d 69 3e ba 8a ad 3d 73 6f 2f bd ab 9c 1a bf
       0.22789396 0.084737256 -0.042830896 -0.60395306
000020 b0 d8 f7 3e 82 53 8b 3c b9 e8 d5 3e ae ae 4d 3e
       0.48407507 0.017007593 0.41779116 0.20086166
000030 12 90 b0 bd 1b 7e b2 bd d5 42 8c bd a5 72 26 be
       -0.08621229 -0.08715459 -0.06848685 -0.16254671
000040 67 e3 4b 3e 0e c9 bb 3d 5e 53 3f be 02 27 45 be
       0.19910966 0.091692075 -0.18684146 -0.19253162
000050 cf ff fd 3d 99 21 c2 be 25 4e 34 3e 94 11 3b 3d
       0.12402307 -0.37916258 0.17607935 0.04567106
000060 1e 93 67 be 73 cf 42 bc a2 f1 10 3e e3 c8 02 be
       -0.22614715 -0.01189028 0.14154676 -0.12771945
000070 6d 25 0f 3e 33 2c 07 3d 77 b8 f7 bd 1e 04 42 3e
       0.1397912 0.033001136 -0.12095731 0.18946883
000080 81 7b fb 3d f1 1b cd bd 7a 29 da 3e 6b 42 e4 3e
       0.12279416 -0.10015095 0.4260977 0.44581923
000090 8d 98 68 be e3 31 98 be e1 60 ce 3b 3f 37 d2 bd
       -0.22714444 -0.2972556 0.00629817 -0.102644436
0000a0 c1 27 8b 3b 25 12 2d be fa 66 a5 bd fb d5 c1 3d
       0.0042466824 -0.16901453 -0.08076282 0.09464642
0000b0 0d 0a ea 3c 46 66 d8 bc 70 42 7a bd c9 d4 9b be
       0.028569246 -0.026415955 -0.061098516 -0.3043578
0000c0 81 22 7e bd 0e 06 46 3b d0 2b 4a 3d da 7a ba bd
       -0.062044624 0.0030216011 0.04935819 -0.09105463
0000d0 56 8d 3e be b0 ec a3 bd 07 01 99 3e a3 c4 c1 3d
       -0.18608603 -0.08004129 0.29883596 0.094613336
0000e0 0f ec 35 3c f4 35 c1 3d 71 88 dc bc 40 53 44 3d
       0.011103644 0.09434119 -0.02692053 0.047930956
0000f0 7e b9 0d 3f 9e c9 10 3d 40 02 0b 3c 7f eb 04 be
       0.55361164 0.035348527 0.008484423 -0.1298046
000100 ce c2 b5 3e e2 05 ea bc 3e 80 5c bb 6a f7 48 3e
       0.35500187 -0.028567258 -0.0033645774 0.19625631
000110 18 d2 c0 3e d7 29 ff bc ec 4c 49 be 52 f3 0a 3e
       0.3766029 -0.03114788 -0.1965825 0.13569382
000120 dc de 14 3d 69 76 99 be 25 17 1c 3e 87 e6 68 be
       0.036345348 -0.29973152 0.15243204 -0.22744189
000130 a2 e1 b4 3d ad 0d 34 3d 98 f3 55 be 3f 1b 6e be
       0.088320985 0.043958355 -0.20893705 -0.23252581
000140 42 7e a8 3d a9 fc 0d be 2b 23 a7 3d ec d1 0c 3f
       0.08227207 -0.13865913 0.08161005 0.55007815
000150 d9 bc 41 bd 66 ad ba 3d 38 b4 51 3c dc b3 09 3d
       -0.04729924 0.091151044 0.012799315 0.033618793
000160 c1 dd 12 3e 70 42 1e be dd 77 7c 3e d9 12 83 3e
       0.14342405 -0.15455031 0.24655099 0.25600317
000170 da a9 9a bd e5 70 e6 3d 2a d6 8d 3e 4e 92 37 3d
       -0.07551928 0.11252002 0.27702457 0.04481726
000180 da fb 84 3d 9c be 6e 3e 76 56 56 3e 9c 84 0b be
       0.064933494 0.23314899 0.2093142 -0.13624805
000190 4e a0 9a 3e 74 7e 04 3e a6 32 c6 3d d9 fa 6e be
       0.30200428 0.12938863 0.09677629 -0.23337878
0001a0 74 35 bc bd 8c 1b 3e 3e c7 79 a2 bd c7 44 84 3e
       -0.09189883 0.18565196 -0.079333834 0.25833723
0001b0 e8 fa 05 3c eb 94 c5 bc 17 b5 c1 3e 98 59 b5 3b
       0.0081774965 -0.024118861 0.37833473 0.005534362
0001c0 a4 25 ac bd d3 f8 03 bc 39 98 20 3d 06 18 8c bd
       -0.08405617 -0.00805493 0.03920767 -0.068405196
0001d0 13 af b1 3e 86 eb fe bd 1f 96 6a 3e fa 39 9f be
       0.34703884 -0.12447266 0.22908829 -0.3109892
0001e0 31 80 58 bb 28 7c 8f be 68 89 39 3e 8a 99 ea bd
       -0.0033035392 -0.2802441 0.18118823 -0.114550665
0001f0 fa a1 32 bf b5 21 0b 3b 3d a3 06 3b d3 86 8b be
       -0.69778407 0.0021229808 0.0020544075 -0.272513
000200 38 7d c6 bc 8f 95 d0 3e 78 02 07 3e 64 d6 46 be
       -0.02422963 0.40739104 0.13184536 -0.19417721
000210 9b 5a 58 3e 02 7c 20 3e 5e c2 52 3d 88 32 30 be
       0.21128313 0.15672305 0.051454894 -0.17206776
000220 db f1 2c be 51 77 58 3d 1e 3d b0 bd f0 12 27 be
       -0.16889136 0.052848164 -0.08605407 -0.16315818
000230 ec a2 35 be ed a6 18 be 57 61 71 3e 58 43 21 3f
       -0.17737931 -0.14907427 0.23572288 0.62993383
000240 a6 37 0f 3e e8 d5 fe 3b 3e 7b f3 3c 0b 4a 2a 3d
       0.13986072 0.0077769645 0.029721852 0.04157452
000250 71 56 97 3d 2e fd c6 3d af 38 27 3e 13 3b 09 be
       0.07389534 0.09716259 0.16330217 -0.13401441
000260 a2 76 8e bd c2 f9 41 bd ec 2b 79 bd 07 c3 28 3e
       -0.06956221 -0.04735733 -0.060832903 0.16480647
000270 f3 b2 a9 3d 45 1f a3 bd 34 ce df 3d 06 2c 4d 3e
       0.08286085 -0.079649486 0.10928002 0.20036325
000280 36 9a 13 3e d8 dd 81 bc f2 a0 36 be 86 14 94 be
       0.14414296 -0.015852854 -0.17834833 -0.28921908
000290 50 50 cd bc d8 8a 86 3e c2 2a 24 3e 4e ba 96 bc
       -0.02506271 0.26277804 0.16031936 -0.018399384
0002a0 fe 7a b8 3e 74 e1 e2 3b f3 27 43 3e fe 00 62 bd
       0.36031336 0.0069238488 0.19058208 -0.055176727
0002b0 80 ad be 3d 48 f1 bd be 97 1c 27 3e 45 eb d4 3d
       0.09310436 -0.37098145 0.163195 0.103964366
0002c0 52 e9 0c 3e b4 74 70 bd 96 4b d3 3d 87 15 3a be
       0.1376088 -0.058705047 0.10317151 -0.18172275
0002d0 59 65 a2 be 98 b5 d2 bd a7 9e 4a bd bd ac 89 be
       -0.31717947 -0.102885425 -0.04946771 -0.268896
0002e0 68 d2 5a be 87 37 24 3d 94 56 a7 be 47 6c 97 be
       -0.21369326 0.040092018 -0.3268324 -0.29574797
0002f0 2b 4b 38 3c 67 96 38 be 36 30 05 be c7 35 9d 3c
       0.01124839 -0.18026124 -0.13006672 0.019190682
000300 0f 36 6c 3e c5 01 86 3e 94 0c 85 3d 42 fc 90 bd
       0.23067497 0.26173225 0.0649654 -0.07079364
000310 7d 35 80 bc 1c b7 29 be 03 a0 8a be 10 53 fe be
       -0.015650505 -0.16573757 -0.27075204 -0.49672747
000320 9e 0d 1b be db 56 ab be 5b 2c 67 3e 34 96 1f be
       -0.15141913 -0.33464703 0.22575514 -0.15584642
000330 9b fc ea bd ec 54 57 3e 9c b7 83 3e 4f 9b 4b 3d
       -0.11473962 0.21028489 0.2572602 0.04970866
000340 a9 8e 58 3e 79 f3 0f 3e ed 15 02 3e d2 2d 49 3d
       0.2114817 0.14057721 0.12703677 0.049115963
000350 de 12 2f be 00 26 56 3e 1b df 50 3e bf 80 ae 3e
       -0.17097041 0.20912933 0.20397608 0.340826
000360 98 83 1d be d6 8e a7 be 88 af 75 be 3e 2f 83 be
       -0.1538223 -0.32726163 -0.23992741 -0.2562198
000370 5f 15 7d be 13 a9 7d be 5d c3 49 bb 9e 79 c5 bd
       -0.24715184 -0.24771528 -0.0030786612 -0.09642337
000380 4b b3 ae be 42 66 54 bd ea f2 4d be 56 2e 93 3e
       -0.34121165 -0.051855333 -0.20112196 0.2874629
000390 1d 43 14 3e 24 76 05 3e 4d 64 44 3e d6 e8 09 3e
       0.14478727 0.13033348 0.19178887 0.13467726
0003a0 a5 ad d7 3d 97 23 3e be 82 92 15 3f 7f 18 49 be
       0.10531167 -0.18568264 0.5842668 -0.19638251
0003b0 00 4c d5 3e 16 89 a1 3e 40 a8 7b be b4 e4 36 3e
       0.41659546 0.315499 -0.24575901 0.17860681
0003c0 23 05 b7 3d 17 3e 63 be 54 fa 06 bf 82 17 f1 bd
       0.089365266 -0.22191654 -0.5272572 -0.11772062
0003d0 74 e0 aa be 4a 7a c9 3d ee 48 30 bc 7b e2 dc bd
       -0.3337437 0.09837778 -0.010759575 -0.10785385
0003e0 00 93 80 bc bc 89 30 be 12 9a 01 be e6 7c 25 3e
       -0.015695095 -0.17240041 -0.1265643 0.16160926
0003f0 46 4d aa bd a6 e5 6b 3d 64 44 ee 3c 2d 73 12 be
       -0.0831552 0.057592057 0.029085346 -0.14301749

sections.0.0.conv.weight f4 [128, 128, 3, 3]
000000 59 ae cb bd 19 9f 15 bc 8c 29 8e bd 68 2e 20 be
       -0.099453636 -0.00913217 -0.06941518 -0.15642703
000010 09 5d 69 3e ba 8a ad 3d 73 6f 2f bd ab 9c 1a bf
       0.22789396 0.084737256 -0.042830896 -0.60395306
000020 b0 d8 f7 3e 82 53 8b 3c b9 e8 d5 3e ae ae 4d 3e
       0.48407507 0.017007593 0.41779116 0.20086166
000030 12 90 b0 bd 1b 7e b2 bd d5 42 8c bd a5 72 26 be
       -0.08621229 -0.08715459 -0.06848685 -0.16254671
000040 67 e3 4b 3e 0e c9 bb 3d 5e 53 3f be 02 27 45 be
       0.19910966 0.091692075 -0.18684146 -0.19253162
000050 cf ff fd 3d 99 21 c2 be 25 4e 34 3e 94 11 3b 3d
       0.12402307 -0.37916258 0.17607935 0.04567106
000060 1e 93 67 be 73 cf 42 bc a2 f1 10 3e e3 c8 02 be
       -0.22614715 -0.01189028 0.14154676 -0.12771945
000070 6d 25 0f 3e 33 2c 07 3d 77 b8 f7 bd 1e 04 42 3e
       0.1397912 0.033001136 -0.12095731 0.18946883
000080 81 7b fb 3d f1 1b cd bd 7a 29 da 3e 6b 42 e4 3e
       0.12279416 -0.10015095 0.4260977 0.44581923
000090 8d 98 68 be e3 31 98 be e1 60 ce 3b 3f 37 d2 bd
       -0.22714444 -0.2972556 0.00629817 -0.102644436
0000a0 c1 27 8b 3b 25 12 2d be fa 66 a5 bd fb d5 c1 3d
       0.0042466824 -0.16901453 -0.08076282 0.09464642
0000b0 0d 0a ea 3c 46 66 d8 bc 70 42 7a bd c9 d4 9b be
       0.028569246 -0.026415955 -0.061098516 -0.3043578
0000c0 81 22 7e bd 0e 06 46 3b d0 2b 4a 3d da 7a ba bd
       -0.062044624 0.0030216011 0.04935819 -0.09105463
0000d0 56 8d 3e be b0 ec a3 bd 07 01 99 3e a3 c4 c1 3d
       -0.18608603 -0.08004129 0.29883596 0.094613336
0000e0 0f ec 35 3c f4 35 c1 3d 71 88 dc bc 40 53 44 3d
       0.011103644 0.09434119 -0.02692053 0.047930956
0000f0 7e b9 0d 3f 9e c9 10 3d 40 02 0b 3c 7f eb 04 be
       0.55361164 0.035348527 0.008484423 -0.1298046
000100 ce c2 b5 3e e2 05 ea bc 3e 80 5c bb 6a f7 48 3e
       0.35500187 -0.028567258 -0.0033645774 0.19625631
000110 18 d2 c0 3e d7 29 ff bc ec 4c 49 be 52 f3 0a 3e
       0.3766029 -0.03114788 -0.1965825 0.13569382
000120 dc de 14 3d 69 76 99 be 25 17 1c 3e 87 e6 68 be
       0.036345348 -0.29973152 0.15243204 -0.22744189
000130 a2 e1 b4 3d ad 0d 34 3d 98 f3 55 be 3f 1b 6e be
       0.088320985 0.043958355 -0.20893705 -0.23252581
000140 42 7e a8 3d a9 fc 0d be 2b 23 a7 3d ec d1 0c 3f
       0.08227207 -0.13865913 0.08161005 0.55007815
000150 d9 bc 41 bd 66 ad ba 3d 38 b4 51 3c dc b3 09 3d
       -0.04729924 0.091151044 0.012799315 0.033618793
000160 c1 dd 12 3e 70 42 1e be dd 77 7c 3e d9 12 83 3e
       0.14342405 -0.15455031 0.24655099 0.25600317
000170 da a9 9a bd e5 70 e6 3d 2a d6 8d 3e 4e 92 37 3d
       -0.07551928 0.11252002 0.27702457 0.04481726
000180 da fb 84 3d 9c be 6e 3e 76 56 56 3e 9c 84 0b be
       0.064933494 0.23314899 0.2093142 -0.13624805
000190 4e a0 9a 3e 74 7e 04 3e a6 32 c6 3d d9 fa 6e be
       0.30200428 0.12938863 0.09677629 -0.23337878
0001a0 74 35 bc bd 8c 1b 3e 3e c7 79 a2 bd c7 44 84 3e
       -0.09189883 0.18565196 -0.079333834 0.25833723
0001b0 e8 fa 05 3c eb 94 c5 bc 17 b5 c1 3e 98 59 b5 3b
       0.0081774965 -0.024118861 0.37833473 0.005534362
0001c0 a4 25 ac bd d3 f8 03 bc 39 98 20 3d 06 18 8c bd
       -0.08405617 -0.00805493 0.03920767 -0.068405196
0001d0 13 af b1 3e 86 eb fe bd 1f 96 6a 3e fa 39 9f be
       0.34703884 -0.12447266 0.22908829 -0.3109892
0001e0 31 80 58 bb 28 7c 8f be 68 89 39 3e 8a 99 ea bd
       -0.0033035392 -0.2802441 0.18118823 -0.114550665
0001f0 fa a1 32 bf b5 21 0b 3b 3d a3 06 3b d3 86 8b be
       -0.69778407 0.0021229808 0.0020544075 -0.272513
000200 38 7d c6 bc 8f 95 d0 3e 78 02 07 3e 64 d6 46 be
       -0.02422963 0.40739104 0.13184536 -0.19417721
000210 9b 5a 58 3e 02 7c 20 3e 5e c2 52 3d 88 32 30 be
       0.21128313 0.15672305 0.051454894 -0.17206776
000220 db f1 2c be 51 77 58 3d 1e 3d b0 bd f0 12 27 be
       -0.16889136 0.052848164 -0.08605407 -0.16315818
000230 ec a2 35 be ed a6 18 be 57 61 71 3e 58 43 21 3f
       -0.17737931 -0.14907427 0.23572288 0.62993383
000240 a6 37 0f 3e e8 d5 fe 3b 3e 7b f3 3c 0b 4a 2a 3d
       0.13986072 0.0077769645 0.029721852 0.04157452
000250 71 56 97 3d 2e fd c6 3d af 38 27 3e 13 3b 09 be
       0.07389534 0.09716259 0.16330217 -0.13401441
000260 a2 76 8e bd c2 f9 41 bd ec 2b 79 bd 07 c3 28 3e
       -0.06956221 -0.04735733 -0.060832903 0.16480647
000270 f3 b2 a9 3d 45 1f a3 bd 34 ce df 3d 06 2c 4d 3e
       0.08286085 -0.079649486 0.10928002 0.20036325
000280 36 9a 13 3e d8 dd 81 bc f2 a0 36 be 86 14 94 be
       0.14414296 -0.015852854 -0.17834833 -0.28921908
000290 50 50 cd bc d8 8a 86 3e c2 2a 24 3e 4e ba 96 bc
       -0.02506271 0.26277804 0.16031936 -0.018399384
0002a0 fe 7a b8 3e 74 e1 e2 3b f3 27 43 3e fe 00 62 bd
       0.36031336 0.0069238488 0.19058208 -0.055176727
0002b0 80 ad be 3d 48 f1 bd be 97 1c 27 3e 45 eb d4 3d
       0.09310436 -0.37098145 0.163195 0.103964366
0002c0 52 e9 0c 3e b4 74 70 bd 96 4b d3 3d 87 15 3a be
       0.1376088 -0.058705047 0.10317151 -0.18172275
0002d0 59 65 a2 be 98 b5 d2 bd a7 9e 4a bd bd ac 89 be
       -0.31717947 -0.102885425 -0.04946771 -0.268896
0002e0 68 d2 5a be 87 37 24 3d 94 56 a7 be 47 6c 97 be
       -0.21369326 0.040092018 -0.3268324 -0.29574797
0002f0 2b 4b 38 3c 67 96 38 be 36 30 05 be c7 35 9d 3c
       0.01124839 -0.18026124 -0.13006672 0.019190682
000300 0f 36 6c 3e c5 01 86 3e 94 0c 85 3d 42 fc 90 bd
       0.23067497 0.26173225 0.0649654 -0.07079364
000310 7d 35 80 bc 1c b7 29 be 03 a0 8a be 10 53 fe be
       -0.015650505 -0.16573757 -0.27075204 -0.49672747
000320 9e 0d 1b be db 56 ab be 5b 2c 67 3e 34 96 1f be
       -0.15141913 -0.33464703 0.22575514 -0.15584642
000330 9b fc ea bd ec 54 57 3e 9c b7 83 3e 4f 9b 4b 3d
       -0.11473962 0.21028489 0.2572602 0.04970866
000340 a9 8e 58 3e 79 f3 0f 3e ed 15 02 3e d2 2d 49 3d
       0.2114817 0.14057721 0.12703677 0.049115963
000350 de 12 2f be 00 26 56 3e 1b df 50 3e bf 80 ae 3e
       -0.17097041 0.20912933 0.20397608 0.340826
000360 98 83 1d be d6 8e a7 be 88 af 75 be 3e 2f 83 be
       -0.1538223 -0.32726163 -0.23992741 -0.2562198
000370 5f 15 7d be 13 a9 7d be 5d c3 49 bb 9e 79 c5 bd
       -0.24715184 -0.24771528 -0.0030786612 -0.09642337
000380 4b b3 ae be 42 66 54 bd ea f2 4d be 56 2e 93 3e
       -0.34121165 -0.051855333 -0.20112196 0.2874629
000390 1d 43 14 3e 24 76 05 3e 4d 64 44 3e d6 e8 09 3e
       0.14478727 0.13033348 0.19178887 0.13467726
0003a0 a5 ad d7 3d 97 23 3e be 82 92 15 3f 7f 18 49 be
       0.10531167 -0.18568264 0.5842668 -0.19638251
0003b0 00 4c d5 3e 16 89 a1 3e 40 a8 7b be b4 e4 36 3e
       0.41659546 0.315499 -0.24575901 0.17860681
0003c0 23 05 b7 3d 17 3e 63 be 54 fa 06 bf 82 17 f1 bd
       0.089365266 -0.22191654 -0.5272572 -0.11772062
0003d0 74 e0 aa be 4a 7a c9 3d ee 48 30 bc 7b e2 dc bd
       -0.3337437 0.09837778 -0.010759575 -0.10785385
0003e0 00 93 80 bc bc 89 30 be 12 9a 01 be e6 7c 25 3e
       -0.015695095 -0.17240041 -0.1265643 0.16160926
0003f0 46 4d aa bd a6 e5 6b 3d 64 44 ee 3c 2d 73 12 be
       -0.0831552 0.057592057 0.029085346 -0.14301749

sections.0.0.bn1.weight f4 [128]
000000 a8 dd ac 3d ea a9 87 3e 35 b6 54 3f 45 b3 0c 3f
       0.08440715 0.26496822 0.83090526 0.54961044
000010 c8 b8 65 3f b8 78 cd 3d e8 56 bc 3e 1b e4 48 3f
       0.8973508 0.10032791 0.36785054 0.7847306
000020 5d 69 46 3f b0 a4 29 3d 1b 7c 74 3f 7d eb 6a 3f
       0.7750452 0.041416824 0.9550187 0.91765577
000030 b7 9f 0f 3f 50 57 92 3e 2d f8 20 3f 0a 02 70 3f
       0.5610308 0.2858224 0.62878686 0.9375311
000040 1c 9e 35 3e 92 6c 08 3f c1 bb 42 3f e8 7a 6e 3e
       0.17736095 0.53290665 0.7606774 0.23289073
000050 44 ab 6d 3f 78 16 bd 3e 70 8d 4b 3f 1c 0b b7 3e
       0.92839456 0.36931205 0.7951269 0.35750663
000060 57 04 3b 3f fd c8 41 3f 6d 27 05 3f 2c 6d c2 3e
       0.730535 0.7569731 0.52013284 0.37973917
000070 58 ba d1 3d 50 43 77 3d c0 9f 4b 3d 4c e8 db 3e
       0.102406204 0.06036693 0.049712896 0.42950666
000080 48 f9 40 3f 9a dd 58 3f 52 55 e3 3e fe 6d 00 3f
       0.75380373 0.8471314 0.44401032 0.50167835
000090 aa 89 fc 3e 75 7a 2c 3f 36 56 b5 3e 38 47 06 3f
       0.4932378 0.67374355 0.35417336 0.5245242
0000a0 92 f2 9f 3e 5a 24 9b 3e f0 c0 c8 3d e9 fa 1a 3f
       0.31239754 0.30301172 0.09802425 0.6053911
0000b0 25 fd 08 3f 86 85 81 3e 3c 0d a9 3e 0f 9d 45 3f
       0.5351127 0.25297183 0.3301791 0.7719278
0000c0 38 94 a9 3e b4 e4 eb 3e 10 4b 74 3f fc c4 33 3f
       0.33120894 0.46072924 0.95427036 0.7022245
0000d0 32 15 05 3f b8 a1 7c 3e e9 43 7a 3f 54 77 1c 3f
       0.51985466 0.24671066 0.9775987 0.6111958
0000e0 fd 7d 71 3f e3 51 2c 3f f9 36 5a 3f ce 79 89 3e
       0.9433287 0.6731245 0.8524013 0.26850742
0000f0 73 60 7f 3f 6d 3c 01 3f 1c a7 6f 3f a3 b1 5e 3f
       0.99756545 0.5048283 0.93614364 0.869898
000100 93 6f 1b 3f 2b 55 7d 3f 20 b8 b8 3d b7 c3 53 3f
       0.60717124 0.9895808 0.09019494 0.8272051
000110 36 f8 ef 3e 24 39 a9 3e 0e 02 92 3e d4 ed e6 3e
       0.46869057 0.33051407 0.28517193 0.45103323
000120 55 7d 44 3f 10 2e 35 3d 80 28 26 3d 8a 9d 18 3f
       0.7675374 0.04423338 0.040565968 0.59615386
000130 e0 ff 9f 3c d2 5d 88 3e 28 db 51 3f 44 c1 6a 3e
       0.01953119 0.2663408 0.8197503 0.22925287
000140 80 b4 22 3f 90 51 1f 3d f0 50 f9 3e f7 5b 08 3f
       0.6355667 0.038896143 0.48694563 0.5326533
000150 9d 8c 53 3f 00 b7 f6 3e ca f1 11 3f a2 ae 69 3f
       0.82636434 0.48186493 0.57009566 0.91282094
000160 8a bc bb 3e 5e 09 69 3f 34 69 28 3f 72 db a7 3e
       0.3666728 0.9102992 0.6578553 0.3278461
000170 e4 eb a3 3e e8 4e c3 3d ae f2 e0 3e 74 52 03 3f
       0.32015908 0.095365345 0.4393515 0.5129769
000180 e7 c3 64 3f 0c bd a5 3e e0 2d 15 3f 48 6c d5 3d
       0.89361423 0.32370794 0.58273125 0.10421044
000190 7a 6a 24 3f b0 ca 81 3e c4 d4 b4 3e 34 19 9d 3e
       0.6422497 0.2534995 0.35318577 0.3068329
0001a0 d8 bc 61 3e 6e bf 07 3f 50 32 c7 3d dc 47 4e 3f
       0.22044694 0.53026474 0.09726393 0.805784
0001b0 c0 d0 6d 3f ce 8a 89 3e c0 22 30 3d 96 40 e1 3e
       0.9289665 0.26863712 0.04300189 0.43994588
0001c0 74 4d 60 3e 30 da 26 3d 2b c5 1f 3f 7d 44 06 3f
       0.21904546 0.040735424 0.6241023 0.52448255
0001d0 48 f8 00 3f 30 f8 6e 3f 08 99 c2 3d 21 a8 16 3f
       0.5037885 0.93347454 0.09501845 0.58850294
0001e0 3a 06 e2 3e 76 40 da 3e 54 21 6a 3f cd e5 5b 3f
       0.44145375 0.42627305 0.91457105 0.85897523
0001f0 6b 2e 4d 3f a8 3c 74 3e 08 6d 4c 3e 14 95 0c 3e
       0.80148953 0.23851264 0.19963467 0.13728744

sections.0.0.bn1.bias f4 [128]
000000 00 00 00 00 00 00 00 00 00 00 00 00 00 00 00 00
       0.0 0.0 0.0 0.0
000010 00 00 00 00 00 00 00 00 00 00 00 00 00 00 00 00
       0.0 0.0 0.0 0.0
000020 00 00 00 00 00 00 00 00 00 00 00 00 00 00 00 00
       0.0 0.0 0.0 0.0
000030 00 00 00 00 00 00 00 00 00 00 00 00 00 00 00 00
       0.0 0.0 0.0 0.0
000040 00 00 00 00 00 00 00 00 00 00 00 00 00 00 00 00
       0.0 0.0 0.0 0.0
000050 00 00 00 00 00 00 00 00 00 00 00 00 00 00 00 00
       0.0 0.0 0.0 0.0
000060 00 00 00 00 00 00 00 00 00 00 00 00 00 00 00 00
       0.0 0.0 0.0 0.0
000070 00 00 00 00 00 00 00 00 00 00 00 00 00 00 00 00
       0.0 0.0 0.0 0.0
000080 00 00 00 00 00 00 00 00 00 00 00 00 00 00 00 00
       0.0 0.0 0.0 0.0
000090 00 00 00 00 00 00 00 00 00 00 00 00 00 00 00 00
       0.0 0.0 0.0 0.0
0000a0 00 00 00 00 00 00 00 00 00 00 00 00 00 00 00 00
       0.0 0.0 0.0 0.0
0000b0 00 00 00 00 00 00 00 00 00 00 00 00 00 00 00 00
       0.0 0.0 0.0 0.0
0000c0 00 00 00 00 00 00 00 00 00 00 00 00 00 00 00 00
       0.0 0.0 0.0 0.0
0000d0 00 00 00 00 00 00 00 00 00 00 00 00 00 00 00 00
       0.0 0.0 0.0 0.0
0000e0 00 00 00 00 00 00 00 00 00 00 00 00 00 00 00 00
       0.0 0.0 0.0 0.0
0000f0 00 00 00 00 00 00 00 00 00 00 00 00 00 00 00 00
       0.0 0.0 0.0 0.0
000100 00 00 00 00 00 00 00 00 00 00 00 00 00 00 00 00
       0.0 0.0 0.0 0.0
000110 00 00 00 00 00 00 00 00 00 00 00 00 00 00 00 00
       0.0 0.0 0.0 0.0
000120 00 00 00 00 00 00 00 00 00 00 00 00 00 00 00 00
       0.0 0.0 0.0 0.0
000130 00 00 00 00 00 00 00 00 00 00 00 00 00 00 00 00
       0.0 0.0 0.0 0.0
000140 00 00 00 00 00 00 00 00 00 00 00 00 00 00 00 00
       0.0 0.0 0.0 0.0
000150 00 00 00 00 00 00 00 00 00 00 00 00 00 00 00 00
       0.0 0.0 0.0 0.0
000160 00 00 00 00 00 00 00 00 00 00 00 00 00 00 00 00
       0.0 0.0 0.0 0.0
000170 00 00 00 00 00 00 00 00 00 00 00 00 00 00 00 00
       0.0 0.0 0.0 0.0
000180 00 00 00 00 00 00 00 00 00 00 00 00 00 00 00 00
       0.0 0.0 0.0 0.0
000190 00 00 00 00 00 00 00 00 00 00 00 00 00 00 00 00
       0.0 0.0 0.0 0.0
0001a0 00 00 00 00 00 00 00 00 00 00 00 00 00 00 00 00
       0.0 0.0 0.0 0.0
0001b0 00 00 00 00 00 00 00 00 00 00 00 00 00 00 00 00
       0.0 0.0 0.0 0.0
0001c0 00 00 00 00 00 00 00 00 00 00 00 00 00 00 00 00
       0.0 0.0 0.0 0.0
0001d0 00 00 00 00 00 00 00 00 00 00 00 00 00 00 00 00
       0.0 0.0 0.0 0.0
0001e0 00 00 00 00 00 00 00 00 00 00 00 00 00 00 00 00
       0.0 0.0 0.0 0.0
0001f0 00 00 00 00 00 00 00 00 00 00 00 00 00 00 00 00
       0.0 0.0 0.0 0.0

sections.0.0.bn1.running_mean f4 [128]
000000 2c d2 38 40 9d af a3 c0 d6 24 1e 40 f5 dc 4c 40
       2.8878279 -5.115187 2.4709983 3.2009861
000010 7c bb 4f c0 48 92 21 c0 ad 8e 00 40 a5 b4 95 40
       -3.2458181 -2.5245533 2.0087082 4.6783013
000020 ec bf 43 40 ef b5 03 bf 33 8a 80 c0 a1 e7 7e c0
       3.058589 -0.51449484 -4.01687 -3.9828875
000030 41 56 c2 bf 0f 29 2a c0 48 5a 8c 40 7f 8f 37 bf
       -1.5182573 -2.658756 4.3860207 -0.7170333
000040 14 a0 fa 3e ad f9 9a 40 71 78 62 bf 90 20 f1 3f
       0.48950255 4.842978 -0.8846503 1.8838062
000050 95 08 80 bf c9 79 94 bf 9b c8 c8 bf b4 07 a3 c0
       -1.0002619 -1.1599666 -1.568622 -5.0946903
000060 50 80 57 bf 9f 41 de 3f bd fb d4 3f 4b 15 aa bf
       -0.84180164 1.7363776 1.6639324 -1.3287748
000070 20 22 09 40 02 ef a1 3f 62 69 e0 c0 b7 5b af 40
       2.1427078 1.2651064 -7.012864 5.4799457
000080 e1 3b af c0 fd b3 cf 40 26 a5 3d c0 6d a1 d8 c0
       -5.4760594 6.490721 -2.9632049 -6.7697053
000090 6a f5 42 c0 cc c7 d8 bf 4f 60 3a c0 88 44 c2 3f
       -3.046229 -1.6935973 -2.9121282 1.5177164
0000a0 01 61 6b 3e 4b f8 68 c0 86 6d 22 c0 4c 23 f8 3f
       0.22986223 -3.6401546 -2.5379348 1.9385772
0000b0 10 42 fe 3e 46 2c 13 40 11 1d 4b c0 07 6d 2e c0
       0.49659777 2.2995772 -3.173649 -2.7254045
0000c0 3b 51 49 bf 6a 74 43 c0 49 cd 9e c0 37 c9 7a 3f
       -0.7863957 -3.0539804 -4.962559 0.9796328
0000d0 9c f7 a7 c0 0a e3 69 c0 22 74 ab 3f 42 e0 b5 bf
       -5.2489758 -3.6544824 1.3394816 -1.4209063
0000e0 8f b8 a9 3f 38 0f df 3f 27 9f 11 be 56 de 52 3f
       1.3259448 1.7426519 -0.14220868 0.8237051
0000f0 c8 18 4c c0 35 72 a3 c0 39 1f 44 c0 7c a6 da bf
       -3.1890125 -5.1076913 -3.0644057 -1.7082057
000100 20 50 bf c0 8f de ec 3f 61 39 bd 3f a8 e9 ad 40
       -5.978531 1.850542 1.4783136 5.4347725
000110 e6 7f 66 c0 59 5b 93 c0 3b 0f e5 3e 6e 8d 18 c0
       -3.6015563 -4.604901 0.44738182 -2.3836322
000120 bc e2 35 bf c9 ff 30 c0 81 46 8c 3f 75 14 da 3f
       -0.71049094 -2.765612 1.0959016 1.7037493
000130 23 bb e1 be 36 56 ae c0 d1 4d 9f 40 f2 ca b8 40
       -0.44088086 -5.448024 4.978249 5.7747736
000140 77 05 45 c0 c7 cc a3 40 c2 43 84 c0 8e a7 59 c0
       -3.0784585 5.118747 -4.133271 -3.4008517
000150 c9 53 a8 c0 25 0e 84 c0 39 92 b7 3e 60 94 63 3f
       -5.2602277 -4.1267266 0.35853747 0.8889828
000160 47 3f 35 c0 e2 a0 87 c0 54 7b 8a c0 66 13 af bf
       -2.8319871 -4.238389 -4.3275547 -1.3677795
000170 2c 59 b2 40 27 68 18 bf 61 89 99 c0 ab da 2f 3e
       5.5733852 -0.59533924 -4.79802 0.17173259
000180 75 74 99 3f a2 fb 9d 40 24 2a 45 3f 7a a9 99 40
       1.1988665 4.936967 0.77017426 4.801938
000190 a9 c8 83 c0 88 8c ca 3f 43 00 98 c0 ad a3 c1 c0
       -4.1182446 1.5824137 -4.750032 -6.05123
0001a0 0d c7 1c 40 5d 57 73 bf a5 7c 2f c0 40 93 18 40
       2.449649 -0.9505518 -2.7419827 2.3839874
0001b0 a9 6a 38 c0 64 fc bb bf 77 e1 81 bf 8d d2 06 40
       -2.88151 -1.4686399 -1.0146931 2.106601
0001c0 ba a2 2f 3e 33 73 33 c1 60 b3 3e 3f 2e 66 75 3e
       0.17151919 -11.215625 0.74492455 0.2396476
0001d0 48 6b f5 bf 87 68 76 40 a3 14 9e c0 45 1d e7 3e
       -1.9173365 3.8501298 -4.940019 0.45139518
0001e0 3e 93 d4 bf 69 16 07 40 da 52 30 c0 4e 6a a2 bf
       -1.6607435 2.1107428 -2.7550569 -1.2688692
0001f0 a8 b1 c6 c0 1f 6f bc 3e e4 73 77 c0 70 5b e2 bf
       -6.2091866 0.3680353 -3.8664484 -1.7684155

sections.0.0.bn1.running_var f4 [128]
000000 11 cd 53 40 31 88 c5 40 10 b0 8c 40 28 5a 62 40
       3.3093913 6.172875 4.396492 3.5367527
000010 79 c9 9c 40 96 f0 b3 40 eb 4c d2 40 db b0 c1 40
       4.899594 5.6231184 6.5718894 6.052839
000020 d6 1c 80 40 c9 59 0d 41 1a f8 1b 41 a7 0d db 40
       4.00352 8.83442 9.748072 6.8454165
000030 1e b5 cb 40 58 eb dd 40 61 66 a3 40 6a 9f 98 40
       6.365859 6.9349785 5.1062474 4.7694597
000040 c5 32 b1 40 bb 68 ea 40 d1 66 76 40 fd bd 08 41
       5.5374475 7.3252845 3.8500254 8.546384
000050 21 1e 6d 40 c7 aa db 40 63 8d 61 40 e9 43 0d 41
       3.704964 6.864597 3.5242546 8.82908
000060 10 03 82 40 06 f9 09 41 2f f0 2e 41 a5 36 28 41
       4.062874 8.623297 10.933639 10.513341
000070 50 7f ac 40 0c b6 e8 40 8e b7 f7 40 11 0e a9 40
       5.390541 7.2722225 7.7411566 5.282967
000080 36 dd 11 41 a9 d6 a8 40 eb ab 72 40 44 55 4f 41
       9.116507 5.2762036 3.791743 12.958317
000090 c0 5e a1 40 ab 2f 42 40 10 28 c1 40 c8 2f 72 40
       5.042816 3.0341594 6.0361404 3.7841663
0000a0 e6 6c ac 40 ab 07 a2 40 db ba 22 41 29 60 81 40
       5.3882933 5.063436 10.170619 4.0429883
0000b0 11 27 df 40 8d e3 5e 40 bd 9f 18 41 b6 87 02 41
       6.973519 3.4826386 9.538999 8.158133
0000c0 ce 8b c9 40 f8 51 c1 40 09 f8 13 41 c8 ac 38 40
       6.298316 6.041256 9.248055 2.8855457
0000d0 7e f3 2a 41 6c 97 73 40 39 66 81 40 b9 a7 11 41
       10.684446 3.806117 4.0437284 9.103448
0000e0 20 15 10 41 c7 55 f5 40 88 46 73 40 4b 92 c6 40
       9.005157 7.666721 3.80118 6.205358
0000f0 9b d8 bb 40 d6 cb df 40 1c 7b 2c 41 d5 68 90 40
       5.870191 6.9936323 10.780056 4.512797
000100 1a bb 28 41 b5 19 85 40 1c 4e 07 40 66 5a fa 40
       10.545679 4.159388 2.1141424 7.823535
000110 72 dc 5e 40 7d 07 c0 40 a7 03 1e 40 e0 ec de 40
       3.482205 6.000914 2.468973 6.9664154
000120 5f 58 61 40 3c aa 04 41 b2 9d 6c 40 c6 58 42 40
       3.5210187 8.291561 3.697125 3.0366683
000130 e3 c7 2f 40 0e cb f4 40 15 ae da 40 38 19 be 40
       2.746575 7.649787 6.8337502 5.9405785
000140 75 b0 9a 40 58 c8 aa 40 9c c6 1b 41 df 3e 1b 41
       4.83404 5.336956 9.735989 9.702849
000150 7b c4 bf 40 e7 39 36 41 63 79 ad 40 b8 e1 db 40
       5.9927344 11.389136 5.4210677 6.8713036
000160 0f 9d a7 40 1b 0f e4 40 21 02 25 41 35 55 29 40
       5.237922 7.126844 10.31302 2.6458256
000170 05 e9 d7 40 a6 31 0f 41 c0 cd 9d 40 36 fc ca 40
       6.747195 8.949621 4.931366 6.3432875
000180 d6 43 e7 40 7b c1 a2 40 7b ad 8b 40 b3 f3 8b 40
       7.2270308 5.086118 4.364927 4.3734984
000190 c2 5b dc 40 99 39 08 41 49 3c 0f 41 c4 bc 4d 41
       6.886201 8.514062 8.952218 12.858585
0001a0 64 a8 8f 40 09 ad cc 40 5a 9e b3 40 71 c8 7a 40
       4.4893055 6.3961225 5.61308 3.918484
0001b0 ce f5 95 40 3a 84 32 40 6e 12 c2 40 b5 3b 8a 40
       4.6862555 2.7893205 6.0647497 4.3197885
0001c0 1f a6 bc 40 7c 23 45 41 c8 17 a8 40 37 27 c8 40
       5.8952785 12.321163 5.252903 6.254787
0001d0 27 32 95 40 bd 11 52 40 11 cd 69 40 1a 0f b2 40
       4.662372 3.2823327 3.6531413 5.5643435
0001e0 58 18 7d 40 73 5e c3 40 3e 34 bb 40 9f 6d d2 40
       3.9546108 6.1052794 5.850127 6.5758815
0001f0 f6 15 bb 40 d3 4f f1 40 03 b4 80 40 28 69 a2 40
       5.846431 7.540994 4.021974 5.0753365
